examples/two_dimensional_STMD/output/isokann/f_NN.pt (torch, 2552 bytes, 3 tensors)

hidden_layers.0.weight f4 [32, 2]
0.20510304 0.078413434 0.17961177 -0.13704771 0.25820407 -0.21999685 0.28096893 -0.122943625
0.059299693 0.19736767 -0.13399458 -0.20857026 -0.4314748 -1.0347224 0.28040782 -0.27197734
0.3895673 -0.09314686 0.20498441 -0.14776582 0.113269195 -0.026627798 -2.239664 -0.23135087
0.20271814 -0.14658254 0.46381193 -3.543661 0.29319838 -0.28094995 -0.16936995 0.24658483
-0.3644218 -0.87469155 -0.70337635 -0.8992006 -0.035431888 0.1990832 0.9787911 0.479188
0.21124 -0.15114094 3.3721354 -0.8822737 0.1904036 -0.1417355 0.14805235 -0.11140313
0.11591712 -0.18901765 0.17027918 -0.13182676 0.42741442 -0.2744728 0.35321695 -0.2361015
0.78864914 -0.964392 0.27459517 -0.44571966 0.262456 -0.15166472 0.21184151 -0.15054904
00000000: 8806 523e 3997 a03d 26ec 373e 3c56 0cbe
00000010: 5333 843e db46 61be 29db 8f3e dec9 fbbd
00000020: 3ce4 723d c01a 4a3e e035 09be 7193 55be
00000030: 44ea dcbe c971 84bf 9d91 8f3e 9d40 8bbe
00000040: 5d75 c73e c8c3 bebd 6fe7 513e ec4f 17be
00000050: aef9 e73d 8a22 dabc a856 0fc0 3ee7 6cbe
00000060: 5895 4f3e bc19 16be c278 ed3e 58cb 62c0
00000070: 191e 963e acd8 8fbe 516f 2dbe bc80 7c3e
00000080: 7f95 babe c9eb 5fbf 7910 34bf 0332 66bf
00000090: 0721 11bd 77dc 4b3e 0e92 7a3f 2158 f53e
000000a0: 4c4f 583e b1c4 1abe 11d1 5740 b0dc 61bf
000000b0: 29f9 423e 1c23 11be 099b 173e 5327 e4bd
000000c0: f465 ed3d d88d 41be aa5d 2e3e 98fd 06be
000000d0: 10d6 da3e b387 8cbe dad8 b43e 97c4 71be
000000e0: e9e4 493f 65e2 76bf bd97 8c3e 5e35 e4be
000000f0: a260 863e ff4d 1bbe fbec 583e 8729 1abe

hidden_layers.0.bias f4 [32]
0.024801241 -0.5277443 -0.3754779 -0.33028167 0.22434798 0.29902467 -0.86370677 -0.57889026
-0.15026313 -0.568132 0.065902285 -0.3560179 -0.5690574 -0.2632468 -0.50508285 -0.5424337
-0.87018216 0.6101058 0.18373132 -0.888526 -0.56659865 -0.603459 -0.55166346 -0.49042353
-0.2078199 -0.51671433 -0.38073096 -0.38960433 0.22477119 -0.34037864 -0.6176826 -0.57577425
00000000: f92b cb3c 401a 07bf a43e c0be ae1a a9be
00000010: 7abb 653e c319 993e e31b 5dbf 2732 14bf
00000020: 94de 19be 1971 11bf c7f7 863d fa47 b6be
00000030: bfad 11bf 49c8 86be 1c4d 01bf efdc 0abf
00000040: 42c4 5ebf e52f 1c3f 1024 3c3e 7176 63bf
00000050: 9c0c 11bf 4a7c 1abf d139 0dbf cb18 fbbe
00000060: bdce 54be 6447 04bf 2bef c2be 387a c7be
00000070: 6b2a 663e 1c46 aebe 7220 1ebf f165 13bf

hidden_layers.1.weight f4 [1, 32]
0.07938365 -0.004392132 -0.044158746 -0.03407688 0.16189285 0.11303298 -0.17629239 -0.03548522
-0.07924859 -0.0069208667 -0.06339451 -0.23627895 -0.0067438926 0.65348786 -0.030911034 0.11494745
-0.13814577 0.23932871 0.11688785 -0.19698289 -0.007458907 0.5702979 -0.0054835873 -0.0015313025
0.048120145 -0.003631049 -0.0409883 0.02302569 -0.20422852 -0.05517959 -0.012957529 -0.0076946574
00000000: e593 a23d e0eb 8fbb cddf 34bd 3394 0bbd
00000010: 3dc7 253e d67d e73d fe85 34be f358 11bd
00000020: 164d a2bd 70c8 e2bb fbd4 81bd 1cf3 71be
00000030: dffb dcbb fb4a 273f 2339 fdbc 9269 eb3d
00000040: 1676 0dbe 9612 753e e662 ef3d e2b5 49be
00000050: d969 f4bb 0bff 113f aaaf b3bb fcb5 c8ba
00000060: a119 453d e5f6 6dbb 59e3 27bd 5fa0 bc3c
00000070: 4821 51be fe03 62bd d14b 54bc 7723 fcbb
