examples/33dichlororisobutene/output/isokann/f_NN.pt (torch, 11192 bytes, 3 tensors)

hidden_layers.0.weight f4 [33, 66]
000000 13 94 c8 bc 28 90 0d be 17 3f a4 3d 23 a3 22 3d
       -0.02448467 -0.13824522 0.08019846 0.03970636
000010 cd 51 43 bd ad 2f 89 bd c0 b6 00 3e 0b 3e 2d 3e
       -0.047685433 -0.066985466 0.12569714 0.16918199
000020 d4 5c b5 be 71 80 ea 3d 39 a2 a7 3e e3 c5 21 be
       -0.35422385 0.114502795 0.32740954 -0.15798144
000030 fa b2 61 3e e4 72 17 3d 18 b7 ac 3e 58 4e 66 3e
       0.2204093 0.036974803 0.3373344 0.22490823
000040 dd dc 0c bc 55 dd c3 3d 40 6d 5a 3d c1 43 37 3d
       -0.00859758 0.095637 0.053326845 0.04474235
000050 42 c1 e0 bd 74 26 6f bd 4a 64 35 3d 3d 88 97 3d
       -0.10974361 -0.05838628 0.044285096 0.07399032
000060 4e 15 a3 3e 3f 98 94 bd 69 cd 91 3d ee fb c5 3d
       0.31852192 -0.07255601 0.07119257 0.096671924
000070 b3 7b 24 3d 64 28 14 3e ec 48 86 3d 96 f0 44 3e
       0.04015703 0.14468533 0.065568775 0.19232401
000080 f6 dd 5c bd 2f e3 88 3e 60 d2 50 3d 65 27 41 bf
       -0.053922616 0.26735827 0.05098188 -0.75450736
000090 29 f0 0c 3f 46 e1 96 3d fd a8 aa 3d 30 c6 3b be
       0.55053955 0.07367186 0.08333013 -0.18337321
0000a0 31 61 94 bd a2 93 1d 3e e6 7e 02 bf 6b 14 db 3d
       -0.072451 0.15388349 -0.5097488 0.10697254
0000b0 af b1 ea 3e 1d e5 63 3d e0 bb c9 bd 0a b6 24 3e
       0.45838687 0.05563842 -0.098502874 0.16085067
0000c0 81 a7 2c 3f 18 94 9a be d1 e7 29 be 6a b2 c6 bd
       0.6744309 -0.30191112 -0.16592337 -0.097019985
0000d0 68 81 37 bd 2c c0 ec 3d 8e 91 c6 bd 12 a1 21 3e
       -0.044801146 0.115600914 -0.09695731 0.157841
0000e0 39 87 19 3e ae fd 84 3f 97 e3 e7 be d9 b9 d4 be
       0.1499299 1.0389917 -0.45290825 -0.4154804
0000f0 51 ca ae 3d bf 35 40 bd 32 90 44 bd 93 e4 ae be
       0.085346825 -0.046926256 -0.047989078 -0.34158763
000100 35 44 4c be b3 82 84 3e 2e d4 0f bb cc 05 0b be
       -0.19947894 0.25880966 -0.0021946537 -0.1357643
000110 48 b8 14 be 58 21 34 be 7a 72 6c bd 29 d3 95 bd
       -0.14523423 -0.17590845 -0.05772636 -0.07315666
000120 97 4f 41 bd 9f 2c ad 3d a8 07 af be 3d a1 c5 3c
       -0.047195043 0.084557764 -0.3418553 0.024124736
000130 e4 cb 79 3e 31 0f 9f be b2 fc 51 3e dc ea 3e bd
       0.24394184 -0.31066278 0.20506552 -0.046610698
000140 64 73 f5 3d e8 12 84 bd 02 b1 74 3d 47 eb eb bc
       0.119849 -0.064489186 0.05973912 -0.028798712
000150 d8 dd e1 3d f3 36 32 bd 31 0b ab 3d 9c f1 a1 bb
       0.110286415 -0.043509435 0.08351744 -0.004942132
000160 de 8c 40 be ac df 05 be d1 7d d4 3c b8 20 a1 be
       -0.18803737 -0.13073605 0.0259389 -0.31470275
000170 cc c7 61 3e 2b 04 0d 3e e5 72 0c 3e b4 d7 06 3e
       0.22048873 0.13771121 0.13715704 0.13168222
000180 37 54 0d bd ba 27 63 bd c7 f3 f3 be b4 1e f7 3d
       -0.03450414 -0.055457808 -0.47646925 0.12066403
000190 58 04 11 bc 3b a1 19 bf 3e b4 81 3e c6 08 0c 3e
       -0.008851133 -0.60011643 0.25332826 0.13675222
0001a0 60 a1 34 be 0c e7 42 be 9f 32 27 3d f0 1e c0 bd
       -0.17639685 -0.1903345 0.04081976 -0.09380901
0001b0 ba 41 f3 be eb 44 ee 3d 10 a8 5a 3e b8 92 a3 bd
       -0.47511083 0.11634239 0.21353173 -0.07986969
0001c0 de ce 03 be c0 6c 29 3e fb 1e 2b 3f d9 f4 a7 bd
       -0.12871882 0.16545391 0.6684415 -0.08200998
0001d0 8b 68 6e be 65 f5 c1 bd 46 30 fe 3d fc ba 7e 3e
       -0.23282067 -0.094706334 0.12411551 0.24876016
0001e0 56 a3 ff bd 09 f5 85 bd 1f 7a 39 3e d1 3a 7f 3f
       -0.12482326 -0.06540877 0.18112992 0.9969912
0001f0 73 14 ac be fa d6 f0 be 78 8b 94 3c 81 4b 17 bd
       -0.33609352 -0.47039014 0.01813291 -0.03693724
000200 27 8e 4c be 39 9d 0a bf 5b 3e ab be 67 07 df 3e
       -0.19976102 -0.5414615 -0.3344601 0.43560335
000210 fc 09 96 be 68 ff aa bd ff dc 7e be 41 c0 26 be
       -0.29304492 -0.08349496 -0.24888991 -0.16284277
000220 aa ee 96 be 38 15 ee be ba 4f f4 bd 47 c6 69 3d
       -0.2947896 -0.46500564 -0.11929269 0.057073858
000230 17 57 57 be c2 fd a6 3d 8b c0 22 3e d7 ce c9 be
       -0.21029316 0.08153869 0.15893762 -0.3941562
000240 f8 c8 bb 3d 1d 3f 88 bd e0 2e 02 3e a3 0d d1 bd
       0.09169191 -0.06652663 0.12713194 -0.10207679
000250 b8 a4 17 bd 44 63 50 bd 8a d1 1b 3e 53 38 09 bc
       -0.037022322 -0.050875917 0.15216652 -0.008375245
000260 f9 c9 16 be 9c a4 35 bd 72 43 89 be b7 7b 98 be
       -0.14725484 -0.044346437 -0.2680927 -0.29781887
000270 c1 30 36 be 53 65 e2 be b2 d8 53 3e 9c a0 93 3e
       -0.17792036 -0.4421793 0.20688131 0.28833473
000280 41 e1 86 3e e3 40 10 be 24 c7 a4 bc 59 38 c2 be
       0.2634373 -0.14087252 -0.020114489 -0.37933615
000290 e1 2c 2b bf 0a 5d 15 bd 4a 43 a2 bd 6c 13 e2 be
       -0.66865355 -0.036465682 -0.079229906 -0.44155443
0002a0 ea d9 b7 3e 19 74 a2 3d f4 bf 4d be 2a e6 a9 be
       0.35908443 0.079323 -0.20092756 -0.33183414
0002b0 a2 48 fe bd d4 f7 e0 bd 60 5a 07 bf 92 e9 c3 3d
       -0.12416197 -0.109847695 -0.52872276 0.095660344
0002c0 13 e9 64 3e c3 aa e5 bd e7 c1 01 be 7a 45 9d bd
       0.22354536 -0.11214211 -0.12671624 -0.07679267
0002d0 88 ac 18 3f ba 01 aa be 38 43 c3 bd 90 f6 38 3c
       0.5963826 -0.33204442 -0.09534305 0.011289254
0002e0 59 37 14 bd 71 a8 5b 3e cb 5c 6a bd b3 62 53 bc
       -0.036185596 0.21450974 -0.0572174 -0.01290195
0002f0 45 6a 5d 3d 57 f6 85 3f 41 8f c4 be 90 e0 b3 be
       0.054056425 1.0465802 -0.38390544 -0.35132265
000300 8c 06 5f bd 71 25 57 be d2 9b 92 be 72 12 3a bf
       -0.054449603 -0.21010377 -0.28634506 -0.72684395
000310 4c 34 00 bf e0 82 a8 3e 42 51 da bd 74 d5 30 be
       -0.500798 0.3291235 -0.1066003 -0.17268926
000320 83 3a 82 be 16 d3 3b be db 3f 65 be 78 8e 89 be
       -0.25435266 -0.18342242 -0.2238764 -0.26866508
000330 25 f9 a2 be cf e1 08 be 0c 9e 62 be 51 6e 81 3d
       -0.31830707 -0.13367389 -0.22130603 0.06319869
000340 50 f6 5d 3e 39 a5 db be 65 8f d2 3d 06 25 5c bd
       0.21675992 -0.42899492 0.102812566 -0.053746246
000350 6a 0e 11 3c 41 9f 5b 3d b1 a7 3b be 37 67 db bd
       0.008853534 0.053618673 -0.18325688 -0.10713046
000360 35 20 34 3e ea 7a d3 bd 19 f3 be 3b c7 83 44 be
       0.17590411 -0.10326178 0.0058273193 -0.19190894
000370 65 ab 94 be 30 57 67 be ac 0f ba 3c 94 0b e0 be
       -0.29037014 -0.22591853 0.022712551 -0.43758833
000380 44 94 ba 3d 43 b0 42 3e 07 ab 60 3e a7 06 06 3d
       0.09110311 0.19012551 0.21940242 0.032721188
000390 58 c3 ea bd b0 c2 a2 be 04 56 1d bf f6 72 51 bd
       -0.1146304 -0.3178916 -0.61459374 -0.051135026
0003a0 d7 6a dc 3b 39 df 0e bf 28 83 da 3e af 8a b4 3d
       0.0067266035 -0.5580936 0.4267819 0.08815514
0003b0 3e a6 e5 bd 75 72 de be 58 f8 47 bb e0 69 b0 3c
       -0.11213349 -0.434467 -0.0030513015 0.02153486
0003c0 c6 07 a5 be 2d 57 22 bd 5b 8f a8 3e fa 0e 30 be
       -0.32232493 -0.03963392 0.32921872 -0.17193213
0003d0 dd 15 da bd db a8 04 3e ff 1a 2e 3f 4a ab 37 be
       -0.10648701 0.12955038 0.6800994 -0.17936435
0003e0 cb b6 be bd e0 19 2f be 9c b7 1f bb a7 43 1f 3e
       -0.09312209 -0.17099714 -0.0024370914 0.15553151
0003f0 2a 6d bb bd 11 30 bf bd 65 aa 04 3e 5f d2 6a 3f
       -0.09151681 -0.0933534 0.12955625 0.9172725

hidden_layers.0.bias f4 [33]
000000 d6 27 10 bc 20 e8 3d be dc 71 5b bd b9 cb 87 be
       -0.00879856 -0.1854558 -0.05357538 -0.26522616
000010 53 3c ce bd a1 e1 27 be 04 ba 20 be db e6 05 be
       -0.100701 -0.16394664 -0.1569596 -0.13076346
000020 07 93 80 bd ea 41 8e bd ba d3 43 bd 5f c3 05 be
       -0.06278043 -0.06946166 -0.04780934 -0.1306281
000030 eb 57 76 3d eb 31 82 be 01 a0 e1 bd 67 8b 33 be
       0.06014244 -0.2542871 -0.110168464 -0.17533647
000040 1f a7 88 bd 9f 87 ec bd 30 07 65 be 22 76 44 bd
       -0.06672501 -0.11549305 -0.22366023 -0.047964223
000050 9d f6 07 be aa 67 e9 bd 54 97 09 3d 71 43 0a be
       -0.13277669 -0.113967255 0.033591583 -0.1350229
000060 14 c1 2f bd e8 bc 9c bd 38 0c 08 be b8 0c a3 bd
       -0.042908743 -0.076532185 -0.13285911 -0.0796141
000070 35 6d a8 bd 30 61 10 be 1e 75 95 bd 66 15 46 3d
       -0.082239546 -0.14099574 -0.07297729 0.04836025
000080 91 a5 3e be
       -0.18617846

hidden_layers.1.weight f4 [1, 33]
000000 7b 01 51 3e 43 7e 56 3e 1c 7e 44 3e ee 74 18 3e
       0.20410721 0.20946603 0.19188732 0.14888355
000010 88 be cb 3d e3 09 85 3e 8d 26 7e 3e 2d c6 01 3e
       0.0994845 0.25984105 0.24819393 0.12673254
000020 43 3c c7 be 8b a5 06 3e a4 ab d9 be 64 f5 94 3e
       -0.38913164 0.13149087 -0.42513764 0.29093468
000030 ff d4 f6 be ad 96 89 3e bd 7d 4b 3e c2 42 3d 3e
       -0.48209378 0.2687277 0.19872184 0.18482497
000040 3c b1 ad be 4f 75 00 bf 04 ba af 3d 2b 5f b4 be
       -0.33924282 -0.50179 0.085804015 -0.35228857
000050 5c 22 a6 3d 93 dc 58 3e 62 55 e1 be ab 99 f5 be
       0.08112022 0.21177892 -0.44010454 -0.47968802
000060 5c 6e 10 3e 4f ca d8 be ea e0 8b 3e 26 c3 4f 3e
       0.14104599 -0.4234185 0.27320033 0.20289287
000070 09 32 51 3e 46 02 36 3e 6f f5 3d 3e 3e 77 e7 be
       0.20429243 0.17774305 0.18550657 -0.45208162
000080 f7 66 8f 3e
       0.28008243
