examples/two_dimensional/output/isokann/f_NN.pt (torch, 2552 bytes, 3 tensors)

hidden_layers.0.weight f4 [32, 2]
0.13069417 0.15634587 0.16423024 -0.14353642 0.12535942 -0.19737795 0.30622822 -0.12676887
-0.004691217 0.1625164 -0.06864363 -0.1317912 0.115422525 -0.60303545 0.3074487 -0.4373573
0.47655618 -0.08015724 0.22685009 -0.20883733 0.28287253 0.09092577 -1.2678015 0.48392698
0.1609045 -0.13948736 0.46804613 -3.2548056 0.27268773 -0.4839646 -0.058066625 0.3069074
0.14224519 -0.5412557 -0.36865303 -0.5296158 -0.031996313 0.22790278 0.44530636 -0.20212258
0.2829033 -0.27784824 2.8621411 -0.85197115 0.19652094 -0.17262459 0.2773419 -0.1788671
0.110651955 -0.2247354 0.15220301 -0.12491879 0.463507 -0.39722192 0.70877856 -0.3791746
0.37724176 -0.7445049 0.17886682 -0.6230015 0.29630032 -0.25711304 0.26674393 -0.27008054
00000000: b1d4 053e 2219 203e f92b 283e 36fb 12be
00000010: 385e 003e 721d 4abe f2c9 9c3e b3cf 01be
00000020: c8b8 99bb b36a 263e 0895 8cbd 46f4 06be
00000030: a562 ec3d 8860 1abf ea69 9d3e 4ced dfbe
00000040: 2cff f33e 7b29 a4bd 644b 683e 74d9 55be
00000050: abd4 903e 4a37 ba3d 5247 a2bf 47c5 f73e
00000060: 26c4 243e c6d5 0ebe bea3 ef3e bc4e 50c0
00000070: ba9d 8b3e 35ca f7be 45d7 6dbd f722 9d3e
00000080: b9a8 113e bc8f 0abf 17c0 bcbe e794 07bf
00000090: 910e 03bd 595f 693e 32ff e33e 39f9 4ebe
000000a0: b4d8 903e 2042 8ebe 522d 3740 c81a 5abf
000000b0: c93c 493e 80c4 30be c2ff 8d3e f028 37be
000000c0: 7e9d e23d 0921 66be 1bdb 1b3e 6cd5 ffbd
000000d0: ca50 ed3e ac60 cbbe 8372 353f 2c23 c2be
000000e0: d525 c13e e097 3ebf dd28 373e 077d 1fbf
000000f0: adb4 973e 52a4 83be a992 883e ff47 8abe

hidden_layers.0.bias f4 [32]
0.059058484 -0.410853 -0.24136843 -0.29653552 0.22374672 0.3116352 -0.67565167 -0.5771356
-0.10303495 -0.44123694 0.13732937 0.27331161 -0.39869672 -0.09410859 -0.44602677 -0.60879886
-0.72239304 0.34880087 0.1917166 -0.70260084 -0.4900886 -0.11550006 -0.45706803 -0.5241619
-0.23120569 -0.3510563 -0.32125372 -0.31193486 0.19465639 -0.21638407 -0.5992805 -0.5737328
00000000: 4fe7 713d 535b d2be 4929 77be 81d3 97be
00000010: dc1d 653e a68e 9f3e 82f7 2cbf 29bf 13bf
00000020: fd03 d3bd cfe9 e1be 12a0 0c3e 80ef 8b3e
00000030: fa21 ccbe 01bc c0bd 9f5d e4be 3eda 1bbf
00000040: c0ee 38bf 0796 b23e 5b51 443e a6dd 33bf
00000050: e5ec fabe 4c8b ecbd d204 eabe 792f 06bf
00000060: 2fc1 6cbe a7bd b3be 5e7b a4be edb5 9fbe
00000070: 0154 473e c993 5dbe 726a 19bf 27e0 12bf

hidden_layers.1.weight f4 [1, 32]
0.09550853 -0.005094257 -0.090521015 -0.024199616 0.16050984 0.09133746 -0.07391667 -0.05292098
-0.065177284 -0.009148389 -0.076750234 -0.16495678 -0.004813434 0.6992846 -0.046103984 0.117871806
-0.07546185 0.12711793 0.11333507 -0.056241356 -0.016190113 0.5441592 -0.007188574 0.008967892
0.0438052 0.000870476 -0.06896854 0.03415079 -0.1523911 -0.06877533 -0.019794347 -0.01809548
00000000: fa99 c33d baed a6bb 1563 b9bd 463e c6bc
00000010: b15c 243e 220f bb3d a061 97bd abc3 58bd
00000020: ab7b 85bd 20e3 15bc 3a2f 9dbd 6eea 28be
00000030: 03ba 9dbb 5104 333f 88d7 3cbd c666 f13d
00000040: be8b 9abd 342b 023e 381c e83d 565d 66bd
00000050: 21a1 84bc 044e 0b3f 218e ebbb 11ee 123c
00000060: 156d 333d a830 643a 613f 8dbd b3e1 0b3d
00000070: 6a0c 1cbe 15da 8cbd c127 a2bc f93c 94bc
