examples/two_dimensional/output/isokann/f_NN.pt (torch, 4088 bytes, 3 tensors)

hidden_layers.0.weight f4 [128, 2]
0	0xbbdd7297	-0.006758045
1	0x3ec2fcf0	0.380836
2	0xbf1601bb	-0.5859639
3	0xbf04278d	-0.5162285
4	0xbe8ca52a	-0.2746976
5	0x3e44b302	0.19208911
6	0xbc888758	-0.0166661
7	0x3f103aab	0.5633952
8	0xbd7d6b65	-0.061869998
9	0x3e3eaa8c	0.18619746
10	0xbe5cf03b	-0.21576016
11	0xbe0c1faa	-0.13683954
12	0xbf2d2632	-0.67636406
13	0xbeef4ddc	-0.4673909
14	0xbe951352	-0.29116303
15	0x3cd3ee0d	0.025870347
16	0x3e8ffff4	0.28124964
17	0x3ed84f36	0.42247933
18	0xbef48c4c	-0.47763288
19	0xbe9e90be	-0.30969805
20	0x3e84b114	0.2591635
21	0x3f15b20d	0.5847481
22	0xbe182588	-0.14858067
23	0x3f0845d0	0.53231525
24	0xbdef51a3	-0.11685493
25	0x3d9f604f	0.07782041
26	0x3f24229b	0.64115304
27	0xbf282cb6	-0.65693223
28	0xbee30b8b	-0.44344744
29	0xbe3917e6	-0.18075523
30	0xbe8ec2f6	-0.27883118
31	0x3f1d40e5	0.61427146
32	0xbeebdf9e	-0.46069044
33	0xbea55f87	-0.32299444
34	0xbefd1f89	-0.49438122
35	0xbf297029	-0.6618677
36	0xbed30600	-0.41215515
37	0x3f1b73b6	0.60723436
38	0x3e9fd7a2	0.31219202
39	0x3eb13717	0.34612343
40	0x3d12d0da	0.035843708
41	0xbeb8e77b	-0.36114106
42	0x3dfae96d	0.12251554
43	0xbf29c8e2	-0.6632215
44	0xbf03cd80	-0.51485443
45	0xbeb887fc	-0.36041248
46	0x3ee2daaf	0.44307467
47	0x3ed5e1c4	0.41773808
48	0xbea01bbf	-0.3127117
49	0xbcd85af4	-0.026410557
50	0x3ee657ac	0.44988763
51	0x3f34904f	0.705327
52	0x3e90b231	0.2826095
53	0x3dbf6629	0.093456574
54	0x3ef32659	0.47490194
55	0xbed59e73	-0.4172245
56	0x3e044694	0.12917548
57	0xbf0baa37	-0.545566
58	0xbefb2d2f	-0.4905791
59	0xbebabe2e	-0.3647322
60	0x3ea51396	0.32241505
61	0x3e90459f	0.28178117
62	0xbed63da4	-0.41843903
63	0x3e5a54b3	0.21321373
64	0x3ec759e5	0.38935772
65	0xbdb95e78	-0.090512216
66	0x3ce04e2f	0.02738103
67	0x3e275c09	0.16343702
68	0x3ee03c79	0.43796137
69	0x3f2dfd8f	0.67965025
70	0xbf0c7e01	-0.54879767
71	0xbe8296de	-0.25505728
72	0x3e8debb6	0.27718896
73	0x3f162a42	0.5865823
74	0x3f1e0ebf	0.6174125
75	0x3f1f2843	0.6217081
76	0x3e1056b1	0.1409557
77	0xbf1d7a0a	-0.6151434
78	0x3d824da6	0.063624665
79	0xbee1bd85	-0.44089904
80	0xbf29488e	-0.66126335
81	0x3f217286	0.63065374
82	0x3f0a6fee	0.5407704
83	0xbf356828	-0.70862055
84	0x3e08271c	0.13296169
85	0xbdf54c43	-0.119774364
86	0xbde8b37d	-0.1136236
87	0xbea72e67	-0.3265259
88	0x3e8c261e	0.2737283
89	0xbed76928	-0.42072415
90	0x3e83db26	0.25753134
91	0x3eb7f856	0.35931653
92	0x3f024077	0.50879616
93	0x3e85f7e8	0.261657
94	0xbf33a039	-0.70166355
95	0xbee9dc53	-0.45675907
96	0x3eb31df2	0.34983784
97	0x3e1af537	0.15132605
98	0xbf0d557f	-0.5520858
99	0xbed0301c	-0.40661705
100	0x3f2ae840	0.66760635
101	0x3ef2a34a	0.47390205
102	0xbe9d5cbe	-0.3073482
103	0xbe373e5a	-0.17894879
104	0xbf2cd21f	-0.6750812
105	0xbc35f36b	-0.011105399
106	0xbf07a1d4	-0.52981305
107	0xbf0c551f	-0.54817384
108	0xbd27ad07	-0.040936496
109	0x3ddda3ce	0.10822259
110	0xbe9310b6	-0.28723687
111	0x3ed59781	0.4171715
112	0xbedb4f88	-0.42834115
113	0x3f23bcf1	0.63960177
114	0x3ef9e004	0.48803723
115	0xbf199407	-0.59991497
116	0xbe33e0f8	-0.17566288
117	0x3d015af9	0.0315809
118	0x3dcdb496	0.1004421
119	0x3e2ea029	0.17053284
120	0x3e8fd80b	0.28094515
121	0x3d1eadf1	0.038740102
122	0xbeb27dc9	-0.3486159
123	0x3ead3e07	0.33836386
124	0xbf2d6216	-0.6772779
125	0xbed71797	-0.42010185
126	0xbe3676e7	-0.17818795
127	0xbeafb924	-0.3432094
128	0xbe7d68ca	-0.24747005
129	0xbf145683	-0.57944506
130	0xbe171968	-0.14755785
131	0x3e17bfb5	0.14819224
132	0xbeed827c	-0.46388614
133	0xbd069ea4	-0.032866135
134	0x3f01293a	0.5045353
135	0xbd9174b4	-0.071023375
136	0x3c825f57	0.015914602
137	0xbd69fa9b	-0.05712376
138	0x3e1047cf	0.14089893
139	0x3ee75e19	0.45188978
140	0x3f2c0be5	0.6720565
141	0x3ee4ad25	0.4466335
142	0x3f2b3996	0.66884744
143	0xbd47152c	-0.048604175
144	0xbf22c9ef	-0.63589376
145	0xbeab3ebf	-0.3344631
146	0x3ef5c378	0.48000693
147	0xbb4b9bf2	-0.0031068292
148	0xbeb28759	-0.34868887
149	0xbf0b73a9	-0.5447336
150	0xbf2932f4	-0.66093373
151	0xbf18fc3e	-0.5975989
152	0xbe103c64	-0.14085537
153	0x3ec52d30	0.38511038
154	0x3ec48afb	0.38387284
155	0xbf2f0220	-0.6836262
156	0x3ee1c474	0.44095194
157	0xbf0d9ee5	-0.5532058
158	0xbe163d38	-0.1467179
159	0xbe944382	-0.28957754
160	0xbe0ce35b	-0.13758604
161	0xbe0cb071	-0.13739182
162	0xbf22f80c	-0.6365974
163	0xbf1bbdd9	-0.6083656
164	0xbde45107	-0.11148267
165	0x3c241993	0.010015863
166	0xbea3aa5d	-0.31965914
167	0x3e878f70	0.26476622
168	0xbf22669b	-0.63437814
169	0xbd4c0c99	-0.0498167
170	0x3f1f9186	0.62331426
171	0xbe947bbb	-0.2900065
172	0x3f231523	0.6370413
173	0x3e83e02b	0.25756964
174	0xbf245765	-0.64195853
175	0x3ee71db1	0.4513984
176	0xbdab4936	-0.08363573
177	0xbea0872a	-0.31353122
178	0x3f10efd3	0.5661594
179	0xbf127c4f	-0.5722093
180	0x3d98a483	0.07453253
181	0xbe162f0d	-0.14666386
182	0x3f0227d5	0.5084203
183	0x3e465af5	0.19370635
184	0x3eaf7d1e	0.34275144
185	0x3e7c8532	0.24660185
186	0xbe302e2a	-0.1720511
187	0xbe162146	-0.1466113
188	0xbf14f03f	-0.58179086
189	0x3ec3b10b	0.3822101
190	0x3f0f3d49	0.5595289
191	0x3ef8b431	0.48574975
192	0xbefe68f0	-0.49689436
193	0x3cf29d00	0.029615879
194	0xbefe7131	-0.49695733
195	0xbec81313	-0.39077052
196	0xbed1e0ed	-0.40991917
197	0x3e753b13	0.23948316
198	0xbed9005e	-0.42383093
199	0xbc52664f	-0.012841775
200	0x3cf24046	0.029571664
201	0x3ee9783a	0.45599538
202	0xbf09a22c	-0.5376308
203	0xbef6e030	-0.48217916
204	0xbed38f26	-0.4132015
205	0x3efecf2c	0.49767435
206	0xbe837e36	-0.2568223
207	0x3f196481	0.5991898
208	0x3e82d775	0.25555006
209	0x3db7a4c5	0.08966974
210	0xbb8ba8be	-0.004262059
211	0xbe1034e6	-0.14082679
212	0x3db75385	0.08951477
213	0xbe2632eb	-0.16230361
214	0xbbbd348c	-0.0057740863
215	0x3dba7b3c	0.09105536
216	0xbf0e287c	-0.55530524
217	0xbebc9160	-0.36829662
218	0x3f12c581	0.5733262
219	0xbf138b06	-0.5763401
220	0xbd5e3296	-0.05424746
221	0x3f33fe60	0.7031002
222	0x3e82fc92	0.2558332
223	0x3ca0699e	0.019581612
224	0xbf1c6a0e	-0.61099327
225	0x3eb269d2	0.3484636
226	0xbf008aab	-0.5021159
227	0xbe4f2407	-0.20228587
228	0xbe767072	-0.24066332
229	0xbdcf1d1c	-0.10112974
230	0x3b816ab6	0.0039494885
231	0x3f164faf	0.5871534
232	0x3dba01bd	0.09082363
233	0x3f2176f8	0.63072157
234	0x3edc8d98	0.43076777
235	0xbee3f54f	-0.44523093
236	0x3ea1cac3	0.31600007
237	0xbeff53bc	-0.49868572
238	0xbe9ac35c	-0.30227172
239	0x3e57bf2e	0.21069023
240	0x3e6b986c	0.23007363
241	0x3f08b56f	0.53401846
242	0xbe679e02	-0.22618869
243	0xb9b5f15c	-0.00034702837
244	0x3eba203c	0.36352718
245	0xbf2eef39	-0.68333775
246	0x3f02af83	0.5104906
247	0xbf158191	-0.5840083
248	0x3c2d62fe	0.010582684
249	0xbdf8014e	-0.12109624
250	0xbebf94da	-0.37418252
251	0x3dc33f14	0.095335156
252	0x3f1603ad	0.5859936
253	0xbe5515c7	-0.20809089
254	0xbed838f5	-0.42230955
255	0xbe848e7e	-0.25889963

hidden_layers.0.bias f4 [128]
0	0xbf33597a	-0.70058405
1	0x3ea37ad6	0.31929654
2	0xbeadbc5c	-0.3393277
3	0xbef15c82	-0.4714089
4	0xbed09d30	-0.40744925
5	0x3ed02a7c	0.40657413
6	0x3ebfb5e4	0.3744346
7	0x3f0aee31	0.542697
8	0x3e8349d1	0.25642255
9	0xbe71ed7a	-0.23625746
10	0xbe4a8c28	-0.19780028
11	0x3e55cbe1	0.20878555
12	0x3f14c7ca	0.58117354
13	0x3e44b25d	0.19208665
14	0xbeab5faa	-0.33471423
15	0xbea9de79	-0.33177546
16	0xbf2b1864	-0.6683409
17	0x3e1c7569	0.15279163
18	0xbecb428b	-0.39699206
19	0xbf2157c1	-0.63024527
20	0x3f1ec8d4	0.6202519
21	0xbeeae861	-0.45880416
22	0xbda46485	-0.08026985
23	0x3e4f8f9b	0.20269625
24	0x3cb80a10	0.022465736
25	0xbef37ae1	-0.47554687
26	0xbf124ecb	-0.5715148
27	0x3f10393a	0.5633732
28	0x3dec55f5	0.115398325
29	0x3f162bb9	0.58660465
30	0xbe72d2e1	-0.23713256
31	0x3e553d89	0.20824255
32	0xbe258e2a	-0.16167513
33	0xbd00ee09	-0.031477008
34	0xbedc7690	-0.43059206
35	0x3e74e285	0.23914535
36	0x3e64e4d0	0.2235291
37	0xbc70977e	-0.014684556
38	0xbe22cdc7	-0.1589881
39	0xbedf3213	-0.4359289
40	0x3efa17b6	0.48846215
41	0xbf0690b0	-0.52564526
42	0x3e944a3c	0.28962886
43	0xbe737d6f	-0.23778318
44	0xbeae9659	-0.3409908
45	0x3e021cda	0.12706318
46	0xbebc0caf	-0.36728427
47	0x3e26d937	0.16293798
48	0x3e0e5fc8	0.13903725
49	0xbf0664dd	-0.52497655
50	0x3df0d9f9	0.11760325
51	0x3e9a2d72	0.30112797
52	0x3e8f3fed	0.2797846
53	0xbdb68448	-0.089119494
54	0xbf145a81	-0.579506
55	0xbddfbdd1	-0.109248765
56	0x3e7b8a22	0.24564412
57	0xbe83f650	-0.2577386
58	0x3e8967e5	0.26837078
59	0x3ef11dc9	0.47093037
60	0xbebd050f	-0.36917922
61	0x3be8bc85	0.0071025514
62	0x3e95ada8	0.29234052
63	0x3d633c52	0.055477448
64	0x3d7203bd	0.059085596
65	0x3db49a0f	0.08818447
66	0xbf0e2d5b	-0.55537957
67	0x3d642328	0.05569759
68	0x3efacc20	0.4898386
69	0x3f2312a2	0.63700306
70	0x3ed4aeee	0.4153971
71	0x3dc28a1a	0.09498997
72	0x3ea90e18	0.33018565
73	0xbeb021c8	-0.34400773
74	0xbf15fc75	-0.58588344
75	0xbf1bab54	-0.608083
76	0x3f34a888	0.7056966
77	0x3ee5947e	0.44839853
78	0xbefa3c4c	-0.48874128
79	0x3e8d8e39	0.2764757
80	0x3f08b4b2	0.5340072
81	0x3f34f5e4	0.706877
82	0x3f1e45b3	0.618251
83	0x3f0c45be	0.5479392
84	0xbe263bcb	-0.16233747
85	0xbe7dfe16	-0.24803957
86	0x3f14ad9b	0.580774
87	0x3eca95d9	0.3956745
88	0xbed9dd1e	-0.42551512
89	0x3f22a863	0.6353819
90	0x3eaef8da	0.34174234
91	0x3ec52dec	0.38511598
92	0xbee2f068	-0.4432404
93	0x3e4fcb5d	0.2029242
94	0xbe7e05e9	-0.24806942
95	0x3f0d763a	0.55258524
96	0xbe0279f1	-0.1274183
97	0x3e8ce92d	0.2752165
98	0x3e008af8	0.12553012
99	0x3e99fd7b	0.30076203
100	0xbe76114b	-0.24030034
101	0x3eb09055	0.34485117
102	0xbefc8419	-0.49319533
103	0x3e2374b6	0.1596249
104	0xbef4f287	-0.47841284
105	0xbf32923a	-0.69754374
106	0xbf115a40	-0.56778336
107	0x3f0ee6ed	0.55821115
108	0x3ec3de3c	0.3825549
109	0x3f299568	0.662436
110	0x3f10dda2	0.56588185
111	0xbf21a5a3	-0.63143367
112	0xbef751a8	-0.48304486
113	0xbdea3a81	-0.1143694
114	0xbeeaff28	-0.45897794
115	0x3efb2fb7	0.4905984
116	0xbf08fa69	-0.53507096
117	0xbeb0b1c9	-0.3451064
118	0xbf2eed66	-0.6833099
119	0xbecd5c30	-0.40109396
120	0x3f14d463	0.58136576
121	0x3f14354e	0.57893836
122	0x3f019f71	0.50633913
123	0x3f0bd4de	0.54621685
124	0x3f20efa5	0.6286567
125	0xbe3947b9	-0.18093766
126	0x3e9f2fe1	0.31091216
127	0x3f2142ae	0.6299237

hidden_layers.1.weight f4 [1, 128]
0	0x3d3e0285	0.04638912
1	0x3dc09a35	0.09404413
2	0x3d8ae25a	0.067814544
3	0x3da5ffc7	0.08105426
4	0xbc92a3b6	-0.01790033
5	0x3d499188	0.049211055
6	0x3cb32cff	0.021872042
7	0xbb8fd871	-0.0043898155
8	0xbd21ac45	-0.03947093
9	0xbd2480a1	-0.040161733
10	0xbd4e9678	-0.050436467
11	0x3dbb9f09	0.09161193
12	0x3d98d879	0.07463164
13	0xbd68c593	-0.056829046
14	0xbd1b0f9e	-0.03785669
15	0x3ddb2acd	0.10701523
16	0x3d81a87d	0.06330965
17	0x3af8b460	0.0018974654
18	0x3a80e140	0.0009832755
19	0x3dae58b8	0.085130155
20	0x3cc894d7	0.024485035
21	0xbdc586a4	-0.09644821
22	0x3dbf6b33	0.093466185
23	0x3d8fb62d	0.07017169
24	0xbc89898b	-0.016789218
25	0x3d819a09	0.06328208
26	0xbd61e833	-0.055153083
27	0xbd33eb09	-0.04392532
28	0x3d4b4efa	0.049635865
29	0x3c4838af	0.012220546
30	0xbd79202c	-0.060821697
31	0x39fac7ef	0.00047832678
32	0xbd28f6c1	-0.041250948
33	0xbbfef611	-0.0077807982
34	0x3cb20354	0.021730103
35	0x3dc6df14	0.097105175
36	0x3cb622f7	0.02223347
37	0xbd4d2ad4	-0.050089672
38	0xbcc84457	-0.02444665
39	0x3cc2e344	0.02379001
40	0x3dc5ac44	0.09651998
41	0xbe008be7	-0.12553369
42	0xbcbb1457	-0.022836847
43	0xbd93ef49	-0.072233744
44	0xbd828e45	-0.06374792
45	0x3d246194	0.04013212
46	0xbd8f0465	-0.0698326
47	0x3d3bf7cf	0.045890626
48	0x3d8faf4b	0.07015856
49	0x3c58ec4b	0.01323993
50	0xbd809d16	-0.06279962
51	0xbcbb1f40	-0.02284205
52	0x3d4d1e8a	0.050077952
53	0xbd86ef78	-0.06588644
54	0x3d55ab8f	0.052165564
55	0xbd423a2f	-0.04741877
56	0xbd1cf92c	-0.038323566
57	0xbe0187b9	-0.1264943
58	0xbbb4ed8e	-0.005521483
59	0x3d87fbb9	0.06639809
60	0xbdb9ff48	-0.09081894
61	0x3dd830ca	0.10556181
62	0xbcb05fe8	-0.021530107
63	0x3cb06601	0.021533014
64	0xbbfaa83b	-0.007649449
65	0xbd81dade	-0.06340574
66	0x3dbcf9a8	0.09227306
67	0x3cda7ea5	0.026671717
68	0x3db59016	0.08865373
69	0x3d7bf3de	0.061511867
70	0xbd80804a	-0.06274469
71	0x3d4236ad	0.047415424
72	0x3ca7a415	0.020463983
73	0x3cca0501	0.02466059
74	0xbd9dcfd2	-0.07705654
75	0xbcb1c67f	-0.021701096
76	0xbd7df7c2	-0.06200386
77	0xbd932d0f	-0.071863286
78	0xbc8f5aad	-0.017499292
79	0xbd939825	-0.07206754
80	0x3d02f2d0	0.031969845
81	0x3d550419	0.05200586
82	0x3cadc4eb	0.021212062
83	0xbd01b117	-0.031663027
84	0xbd295cb4	-0.041348174
85	0xbd7bc2fb	-0.061465245
86	0x3cea3ac7	0.02859248
87	0x3e08f3c4	0.13374239
88	0x3d31ab59	0.0433763
89	0xbd42ce32	-0.047559924
90	0x3ccf4832	0.02530298
91	0xbdc30e50	-0.09524214
92	0xbd9c7563	-0.07639577
93	0x3d3a7cd6	0.04552921
94	0xbc0aa67e	-0.008462546
95	0x3d361892	0.044457026
96	0xbd18a9a9	-0.037271176
97	0xbd144d91	-0.036206786
98	0xbd2be11d	-0.04196273
99	0x3d88b5e0	0.06675315
100	0x3c4901fc	0.0122685395
101	0x3d95fc45	0.07323507
102	0x3dbd9852	0.092575684
103	0x3db4187c	0.087937325
104	0xbaa71674	-0.001274778
105	0xbcfa4cd4	-0.030554213
106	0xbcdda45c	-0.027055912
107	0x3ca21a30	0.019787878
108	0x3d6014c0	0.05470729
109	0xbdcbc4ee	-0.09949671
110	0x3dde1137	0.10843127
111	0xbc8735ae	-0.016505089
112	0xbd0d3075	-0.03447004
113	0xbd04a293	-0.032381605
114	0x3db02f77	0.08602803
115	0x3ddeb60f	0.10874569
116	0xbd6b4a3d	-0.057443846
117	0x3cf0b9dd	0.029385502
118	0x3c7a80f6	0.015289536
119	0x3d9b3c78	0.07579893
120	0x3dbb9cf2	0.09160794
121	0xbd0d8610	-0.03455168
122	0xbc08d7d0	-0.008352235
123	0xba93c546	-0.0011274002
124	0xbcde9630	-0.027171224
125	0x3d55bea2	0.052183755
126	0xbd5c1dd3	-0.05373938
127	0x3d8495f1	0.064739116
